…
Y_train shape: (455, 10)
X_test shape: (91, 500, 500, 3)
Y_test shape: (91, 10)
2021-11-22 15:30:49.161119: I tensorflow/core/platform/cpu_feature_guard.cc:142] Your CPU supports instructions that this TensorFlow binary was not compiled to use: AVX
Model: "model"
_________________________________________________________________
Layer (type)                 Output Shape              Param #   
=================================================================
input_1 (InputLayer)         [(None, 500, 500, 3)]     0         
_________________________________________________________________
conv2d (Conv2D)              (None, 500, 500, 64)      12352     
_________________________________________________________________
re_lu (ReLU)                 (None, 500, 500, 64)      0         
_________________________________________________________________
max_pooling2d (MaxPooling2D) (None, 63, 63, 64)        0         
_________________________________________________________________
conv2d_1 (Conv2D)            (None, 63, 63, 32)        32800     
_________________________________________________________________
re_lu_1 (ReLU)               (None, 63, 63, 32)        0         
_________________________________________________________________
max_pooling2d_1 (MaxPooling2 (None, 16, 16, 32)        0         
_________________________________________________________________
flatten (Flatten)            (None, 8192)              0         
_________________________________________________________________
dense (Dense)                (None, 10)                81930     
=================================================================
Total params: 127,082
Trainable params: 127,082
Non-trainable params: 0
_________________________________________________________________
Train for 8 steps, validate for 2 steps
Epoch 1/100
2021-11-22 15:30:49.363131: W tensorflow/core/framework/cpu_allocator_impl.cc:81] Allocation of 2730000000 exceeds 10% of system memory.
2021-11-22 15:30:52.723323: W tensorflow/core/framework/cpu_allocator_impl.cc:81] Allocation of 4096000000 exceeds 10% of system memory.
…
