…
Y_train shape: (455, 10)
X_test shape: (91, 500, 500, 3)
Y_test shape: (91, 10)
2021-11-22 20:25:09.800250: I tensorflow/core/platform/cpu_feature_guard.cc:142] Your CPU supports instructions that this TensorFlow binary was not compiled to use: AVX
Model: "model"
_________________________________________________________________
Layer (type)                 Output Shape              Param #   
=================================================================
input_1 (InputLayer)         [(None, 500, 500, 3)]     0         
_________________________________________________________________
conv2d (Conv2D)              (None, 500, 500, 8)       392       
_________________________________________________________________
re_lu (ReLU)                 (None, 500, 500, 8)       0         
_________________________________________________________________
max_pooling2d (MaxPooling2D) (None, 63, 63, 8)         0         
_________________________________________________________________
conv2d_1 (Conv2D)            (None, 63, 63, 16)        528       
_________________________________________________________________
re_lu_1 (ReLU)               (None, 63, 63, 16)        0         
_________________________________________________________________
max_pooling2d_1 (MaxPooling2 (None, 16, 16, 16)        0         
_________________________________________________________________
flatten (Flatten)            (None, 4096)              0         
_________________________________________________________________
dense (Dense)                (None, 10)                40970     
=================================================================
Total params: 41,890
Trainable params: 41,890
Non-trainable params: 0
_________________________________________________________________
Train for 8 steps, validate for 2 steps
Epoch 1/30
2021-11-22 20:25:10.341281: W tensorflow/core/framework/cpu_allocator_impl.cc:81] Allocation of 2730000000 exceeds 10% of system memory.

1/8 [==>...........................] - ETA: 3:10 - loss: 2.1755 - accuracy: 0.2031
…
