…
X_test shape: (55, 500, 500, 3)
Y_test shape: (55, 7)
2021-11-29 16:21:07.015656: I tensorflow/core/platform/cpu_feature_guard.cc:142] Your CPU supports instructions that this TensorFlow binary was not compiled to use: AVX AVX2
Model: "model"
_________________________________________________________________
Layer (type)                 Output Shape              Param #   
=================================================================
input_1 (InputLayer)         [(None, 500, 500, 3)]     0         
_________________________________________________________________
conv2d (Conv2D)              (None, 500, 500, 8)       392       
_________________________________________________________________
re_lu (ReLU)                 (None, 500, 500, 8)       0         
_________________________________________________________________
max_pooling2d (MaxPooling2D) (None, 63, 63, 8)         0         
_________________________________________________________________
conv2d_1 (Conv2D)            (None, 63, 63, 16)        528       
_________________________________________________________________
re_lu_1 (ReLU)               (None, 63, 63, 16)        0         
_________________________________________________________________
max_pooling2d_1 (MaxPooling2 (None, 16, 16, 16)        0         
_________________________________________________________________
flatten (Flatten)            (None, 4096)              0         
_________________________________________________________________
dense (Dense)                (None, 7)                 28679     
=================================================================
Total params: 29,599
Trainable params: 29,599
Non-trainable params: 0
_________________________________________________________________
Train for 5 steps, validate for 1 steps
Epoch 1/100
2021-11-29 16:21:07.160922: W tensorflow/core/framework/cpu_allocator_impl.cc:81] Allocation of 2616000000 exceeds 10% of system memory.
2021-11-29 16:21:14.294691: W tensorflow/core/framework/cpu_allocator_impl.cc:81] Allocation of 576000000 exceeds 10% of system memory.
…
